sagemaker/model.pth (torch, 44362 bytes, 5 tensors)

lstm.weight_ih_l0 f4 [200, 1]
0	0x3e1443fc	0.14479059
1	0x3e0d1ded	0.13780947
2	0xbe1ec93d	-0.15506454
3	0xbcd1073b	-0.025516143
4	0x3dd0c69f	0.10194134
5	0xbda6cc02	-0.0814438
6	0x3bf2e658	0.007412713
7	0xbe200fc0	-0.15631008
8	0xbe140c64	-0.14457852
9	0x3d43c507	0.04779532
10	0xbc9425c3	-0.018084412
11	0x3ddd4bee	0.10805498
12	0xbc664d9b	-0.0140565885
13	0xbda45032	-0.080231085
14	0x3df74d3d	0.12075279
15	0x3df450cf	0.119294755
16	0x3d9032fe	0.07040976
17	0x3d94cd3b	0.07265707
18	0xbd66c939	-0.056344245
19	0x3dd7dd3a	0.105402425
20	0xbd709d42	-0.058743723
21	0x3e17a259	0.14808024
22	0x3dce668f	0.10078155
23	0xbde3087d	-0.110856034
24	0x3e036e5c	0.12835068
25	0x3d6474f9	0.055775616
26	0xbd1959a6	-0.03743901
27	0xbcec0ecf	-0.028815655
28	0xbddf029b	-0.10889169
29	0xbd644c9a	-0.055737115
30	0xbdca642e	-0.09882389
31	0x3df21abe	0.11821507
32	0xbda63867	-0.08116227
33	0xbdf9f826	-0.12205534
34	0x3c35c0da	0.011093343
35	0xbd240799	-0.04004631
36	0xbdf5ff27	-0.12011557
37	0xbe093779	-0.13400067
38	0xbd3a4571	-0.04547638
39	0xbc71140b	-0.014714251
40	0x3d2156db	0.039389472
41	0x3d8b1d37	0.06792682
42	0xbdeb9a5a	-0.115040496
43	0xbd709576	-0.058736287
44	0xbd012fed	-0.031539846
45	0xbdbf7669	-0.09348757
46	0x3de78d2c	0.11306223
47	0x3de99de2	0.11407067
48	0x3b88a964	0.0041705836
49	0x3dcd59e4	0.10026911
50	0x3c44639b	0.011986638
51	0xbc869274	-0.016427256
52	0xbcc4f3e4	-0.024042077
53	0xbce7e1ad	-0.028305853
54	0xbd8f7a11	-0.07005704
55	0x3cb29fcc	0.021804713
56	0x3dc8ad24	0.09798649
57	0x3d8dc2de	0.069219336
58	0xbe1648fd	-0.1467628
59	0x3d5b4034	0.053528026
60	0x3c8a869b	0.016909888
61	0x3d47f807	0.04882052
62	0xbdfc8ccd	-0.12331543
63	0x3e424a56	0.1897367
64	0x3d6c1347	0.05763557
65	0xbdfd8242	-0.1237836
66	0x3d964e20	0.0733912
67	0xbc03ed6d	-0.008052212
68	0xbdacea71	-0.08443154
69	0xbc0498bc	-0.008093055
70	0x3e30e506	0.17274866
71	0x3df0f884	0.117661506
72	0x3db084ab	0.086190544
73	0x3dd8053f	0.105478756
74	0x3d567a23	0.052362572
75	0x3d6b5fa5	0.05746426
76	0xbd7f1a6a	-0.06228105
77	0xbc6c88b9	-0.014436894
78	0xbd99e604	-0.07514575
79	0xbd78fc92	-0.060787745
80	0x3e318d43	0.17339043
81	0xbe0b162f	-0.13582681
82	0x3dc4885a	0.095963195
83	0xbcc05f5c	-0.02348297
84	0xbdcce2d1	-0.10004199
85	0xbd18bdd0	-0.037290394
86	0x3d97dd68	0.07415277
87	0xbd026004	-0.03182985
88	0xbde07b07	-0.109609656
89	0x3e0cfd38	0.1376847
90	0xbe3e9397	-0.18610989
91	0xbd61015e	-0.054932944
92	0x3d8562ee	0.0651301
93	0xbda9c2af	-0.08289086
94	0xbd36c663	-0.04462279
95	0x3d8c99fb	0.06865307
96	0xbc9884eb	-0.018618068
97	0xbdfe21af	-0.124087684
98	0x3b20d344	0.0024539987
99	0x3d2cf95d	0.04223
100	0x3ea7c678	0.32768607
101	0xbd41108d	-0.047134925
102	0xbdd8a0ea	-0.10577567
103	0x3ee95ebf	0.45580098
104	0x3e5f1708	0.2178613
105	0x3ec878ec	0.39154756
106	0xbe3e002d	-0.18554755
107	0xbef3f9ae	-0.47651428
108	0x3eb37384	0.3504907
109	0xbeaa7932	-0.3329559
110	0xbebf9242	-0.37416273
111	0xbea618a7	-0.32440683
112	0x3eb77a18	0.35835338
113	0x3e6fb4a4	0.23408753
114	0x3e47692e	0.19473717
115	0x3e3c62eb	0.18397109
116	0xbe968f84	-0.2940637
117	0x3e28bf0d	0.1647913
118	0x3b9e83d6	0.0048374934
119	0x3edf8f07	0.4366381
120	0xbe87335e	-0.26406378
121	0x3eb8c19b	0.3608521
122	0xbeb54d9d	-0.35410777
123	0x3edee5ea	0.43534786
124	0x3cfd8fc4	0.030952342
125	0x3dbb9037	0.09158366
126	0x3d8d776c	0.069075435
127	0xbe802e90	-0.25035524
128	0xbe990622	-0.2988749
129	0xbe89d63f	-0.2692127
130	0xbe234cef	-0.15947317
131	0x3e6cd8be	0.23129556
132	0x3f1e1a36	0.61758745
133	0xbe85b7ea	-0.26116878
134	0x3dd2bab8	0.1028952
135	0x3e8bef5e	0.2733106
136	0x3e127a5b	0.14304487
137	0xbebad894	-0.3649336
138	0x3e3c9316	0.18415484
139	0xbdba4ade	-0.09096311
140	0x3e7ac378	0.24488628
141	0x3e99424a	0.29933387
142	0xbee7d8b1	-0.4528251
143	0xbd06f252	-0.03294594
144	0x3e06ad85	0.1315213
145	0xbed7f73c	-0.42180812
146	0x3e8d0530	0.2754302
147	0x3e5b65b9	0.21425523
148	0x3e2c0b2b	0.16801135
149	0xbea089a8	-0.31355023
150	0x3e379fce	0.17932054
151	0xbd150df5	-0.036390264
152	0xbe5a47f9	-0.21316518
153	0x3dedf49b	0.116189204
154	0x3dc64812	0.09681715
155	0x3c3aaf8b	0.011394392
156	0xbd6c35fe	-0.05766868
157	0xbe2935d5	-0.16524442
158	0xbcc4e901	-0.024036886
159	0xbe001ad6	-0.12510237
160	0xbe04d10c	-0.1297037
161	0x3d5b8ca4	0.053600922
162	0xbc48fe41	-0.01226765
163	0x3e6062f7	0.21912752
164	0xbdd34caf	-0.103173606
165	0xbd78cd7b	-0.060742836
166	0xbdb792c3	-0.089635395
167	0xbdc2cfde	-0.09512304
168	0x3dbed410	0.093177915
169	0x3d7594ff	0.059956547
170	0x3e0e121f	0.138741
171	0x3e4aabac	0.1979205
172	0x3d01f600	0.031728745
173	0xbd3c39ed	-0.04595368
174	0xbd2d761a	-0.04234896
175	0xbe19c5ac	-0.15016812
176	0xbdcf7c7b	-0.10131165
177	0x3d2c4b65	0.04206409
178	0xbe10b182	-0.14130214
179	0xbc8ef946	-0.017452847
180	0x3d456791	0.04819447
181	0x3d5068ca	0.050881185
182	0x3dbae543	0.091257595
183	0x3c1149df	0.00886771
184	0x3de1bc79	0.110222764
185	0x3c37f2aa	0.011227289
186	0x3dd9ee8f	0.106412046
187	0xbe2be00f	-0.1678469
188	0x3ce1d77d	0.027568573
189	0xbd557f5d	-0.052123416
190	0xbddb84d9	-0.10718698
191	0x3c475963	0.012167308
192	0xbd9e7aae	-0.07738243
193	0x3dba08cb	0.090837084
194	0xbd938191	-0.07202447
195	0x3d876562	0.06611134
196	0x3d37a7da	0.04483781
197	0x3d1c8c94	0.038220003
198	0xbdf95a12	-0.12175383
199	0x3e3220a6	0.17395267

lstm.weight_hh_l0 f4 [200, 50]
0	0x3d92dd70	0.07171142
1	0x3d61ffac	0.05517547
2	0xbcf1afe9	-0.029502826
3	0xbddd25c6	-0.1079822
4	0xbc412185	-0.011787777
5	0x3c61e3e0	0.01378724
6	0x3d1856c3	0.037192117
7	0xbe050cb4	-0.12993127
8	0xbd19a783	-0.037513267
9	0xbdb9ddb3	-0.09075489
10	0x3bbfd967	0.005854774
11	0x3e015f5d	0.12634034
12	0x3dcd6121	0.100282915
13	0xbdf25218	-0.118320644
14	0x3ceb4f54	0.02872435
15	0xbe0b3bcf	-0.13597034
16	0x3cd9bfba	0.02658068
17	0xbe1450f4	-0.14484006
18	0x3af8a655	0.0018970469
19	0x3b57ed4d	0.0032947839
20	0xbe009b97	-0.12559353
21	0x3de7904e	0.11306821
22	0x3b97e664	0.004635619
23	0xbe0a46be	-0.13503549
24	0xbd92d1b8	-0.07168907
25	0x3dea402d	0.11438022
26	0x3d52ed20	0.05149567
27	0xbdad4451	-0.08460296
28	0x3df9677b	0.121779405
29	0x3c9cec98	0.019155785
30	0xbc2656d8	-0.010152541
31	0x3e067e18	0.13134038
32	0xbd954cd7	-0.07290047
33	0x3d8b2ec0	0.06796026
34	0x3de0ad2e	0.109705314
35	0xbdbb6257	-0.09149616
36	0xbe02343c	-0.12715238
37	0x3cab42df	0.02090591
38	0xbdb478ed	-0.08812127
39	0xbd36dddc	-0.044645175
40	0x3d90582c	0.070480675
41	0x3dbc8834	0.09205666
42	0x3e097c1e	0.13426253
43	0xbdf462f1	-0.11932934
44	0x3dc693c4	0.09696153
45	0x3d48dd56	0.049039207
46	0x3de33a80	0.11095142
47	0xbdfda759	-0.12385435
48	0xbe05314b	-0.13007085
49	0xbdd32a3a	-0.103107885
50	0x3d1eab81	0.038737778
51	0x3e07b619	0.13253058
52	0xbdc88c88	-0.09792429
53	0x3deea907	0.11653333
54	0x3db99ac6	0.09062724
55	0x3dc0ca21	0.09413553
56	0xbd888459	-0.06665868
57	0x3c6d4352	0.014481382
58	0xbda809fc	-0.08205029
59	0x3d1511c6	0.036393903
60	0x3cd4a959	0.025959658
61	0xbd5c8479	-0.053837273
62	0xbde79d99	-0.11309356
63	0x3da22d88	0.07918841
64	0xbde8c2d8	-0.113652885
65	0xbe02e694	-0.12783271
66	0x3cf92616	0.030413669
67	0x3dfeb0f4	0.12436095
68	0xbd6bd80b	-0.05757908
69	0x3d396495	0.045261938
70	0x3bd4432e	0.006477735
71	0xbd9577d8	-0.07298249
72	0x3d6681ff	0.056276318
73	0xbde06391	-0.10956491
74	0xbd832804	-0.06404117
75	0x3d50494f	0.050851163
76	0x3dee9239	0.116489835
77	0xbdf34c64	-0.11879805
78	0x3d45b5de	0.048269145
79	0xbd921a9f	-0.07133984
80	0xbdab9eca	-0.08379896
81	0xbd1e8c79	-0.038708184
82	0x3db9f6a5	0.09080247
83	0x3dc9ad2d	0.09847484
84	0xbda07a3d	-0.07835815
85	0xbd75db1f	-0.060023423
86	0xbdb627ff	-0.088943474
87	0xbd7c2068	-0.061554343
88	0xbdf5fa48	-0.12010628
89	0x3d2c9ffb	0.042144757
90	0x3d32f5bd	0.043691386
91	0x3e0af65b	0.1357054
92	0x3cfa71ea	0.030571897
93	0xbd986c2a	-0.07442506
94	0x3d6d2b87	0.05790284
95	0x3d6d2d40	0.057904482
96	0x3d3d4bdd	0.046214927
97	0xbc5b6940	-0.013391793
98	0xbdabdf9d	-0.0839226
99	0x3b168478	0.002296714
100	0xbd60a7e2	-0.054847606
101	0x3dd44f4f	0.103666894
102	0x3db3e6d2	0.0878426
103	0xbe0b19e8	-0.13584101
104	0xbdeeb942	-0.11656429
105	0x3d731ab7	0.05935165
106	0xbd62226c	-0.05520861
107	0x3d22c0f1	0.039734785
108	0x3e0b976b	0.1363198
109	0xbe015c8d	-0.12632962
110	0x3db70344	0.0893617
111	0x3df2579c	0.118331164
112	0x3d8c3c5c	0.0684745
113	0x3da21b9e	0.07915424
114	0x3d423c48	0.04742077
115	0xbde81a8a	-0.11333187
116	0xbdae6eb0	-0.08517206
117	0xbd035aaa	-0.032068886
118	0xbe1004aa	-0.14064279
119	0xbd8e81e2	-0.06958367
120	0x3d1becdf	0.038067695
121	0x3aec2471	0.0018016231
122	0xbda5fc07	-0.08104711
123	0xbdd7daea	-0.105398014
124	0xbccf3e6c	-0.02529832
125	0xbcb09dc8	-0.021559611
126	0xbda7ab9d	-0.081870295
127	0xbdb5516f	-0.08853423
128	0x3dfe87ec	0.12428269
129	0xbd3d6cd5	-0.04624637
130	0x3d64810e	0.05578714
131	0xbd4b827f	-0.049684998
132	0xbd97112f	-0.073763244
133	0x3de00d1d	0.10940001
134	0x3dec7c64	0.11547163
135	0x3cc4fbfe	0.02404594
136	0x3dc7fb47	0.09764724
137	0xbd8d5a9b	-0.06902047
138	0xbe01d0ce	-0.12677309
139	0xbd7ab03d	-0.06120323
140	0xbd095922	-0.03353227
141	0xbde39fde	-0.111144766
142	0xbd9f45dc	-0.077769965
143	0xbd8bb6c4	-0.06821969
144	0x3c8fb523	0.017542427
145	0x3c8f0edd	0.017463142
146	0x3bdfb4e7	0.006826985
147	0xbd87b27a	-0.066258386
148	0x3db3debe	0.08782719
149	0xbc562649	-0.013070651
150	0x3cfbb694	0.030726708
151	0xbdc29587	-0.09501176
152	0xbd5820ea	-0.052765764
153	0x3c49a3e6	0.012307143
154	0x3dc696e0	0.09696746
155	0xbdf9a628	-0.12189895
156	0x3c40b87e	0.011762736
157	0xbd2b443a	-0.041813113
158	0x3d46f0ac	0.048569366
159	0x3d94dada	0.07268305
160	0xbd4266ef	-0.047461446
161	0xbce27d7a	-0.027647723
162	0x3db5d274	0.088780314
163	0x3e121fac	0.14269894
164	0x3d7dddd0	0.061979115
165	0x3d5e75fc	0.054311737
166	0xbd8b0992	-0.06788935
167	0xbdd08b1e	-0.101827845
168	0x3d6351cc	0.05549793
169	0xbe19342b	-0.14961307
170	0xbd51b2b4	-0.051195815
171	0xbdf6f7a1	-0.1205895
172	0x3e17efbb	0.14837544
173	0xbddab36b	-0.106787525
174	0xbcad4a39	-0.021153556
175	0x3cc7d82d	0.024395073
176	0x3da7b005	0.0818787
177	0x3dab49ae	0.08363663
178	0x3d7ebefa	0.06219385
179	0xbd9dcb92	-0.077048436
180	0xbce5bfb2	-0.028045509
181	0x3dd520a2	0.10406615
182	0xbd610650	-0.05493766
183	0x3bf433a5	0.0074524456
184	0xbdbecd5b	-0.09316512
185	0xbd2e22de	-0.04251372
186	0xbd32020d	-0.043458987
187	0x3ce16eb1	0.027518602
188	0xbe0e11c0	-0.13873959
189	0x3d9f6f6b	0.07784923
190	0x3d159ab7	0.0365245
191	0x3d05436b	0.032534998
192	0x3d180e32	0.037122913
193	0x3c5b9989	0.013403305
194	0xbdb56087	-0.08856302
195	0x3de6ed2d	0.112757064
196	0x3d5c7bad	0.053828884
197	0x3c621502	0.013798954
198	0x3e05d37d	0.13068958
199	0xbde81492	-0.113320485
200	0xbde92253	-0.113835
201	0xbce792d3	-0.028268253
202	0xbcd5ec41	-0.026113631
203	0x3ace45e8	0.0015737386
204	0x3dc5075d	0.09620545
205	0xbc18668b	-0.009301792
206	0xbdb617a8	-0.08891231
207	0xbddfb5d5	-0.109233536
208	0x3d4a3c03	0.049373638
209	0x3d5d4d27	0.054028656
210	0x3da335d5	0.07969252
211	0x3df676b7	0.12034362
212	0xbd5819cc	-0.052758977
213	0x3c2e3275	0.010632147
214	0xbdc47f86	-0.09594636
215	0x3d718c5b	0.058971744
216	0xbda42fe8	-0.0801695
217	0xbd145fb6	-0.03622409
218	0x388b44b5	6.640834e-05
219	0xbdd98481	-0.10620976
220	0xbda0dffc	-0.07855222
221	0xbe075d04	-0.13219076
222	0x3dc45e95	0.095883526
223	0xbe0dc249	-0.13843645
224	0xbe017edc	-0.1264605
225	0xbd3d88e2	-0.04627312
226	0xbe0e523a	-0.13898554
227	0x3d89b408	0.06723791
228	0x3d70d2d2	0.058794804
229	0x3dff1184	0.12454513
230	0x3d1dfbfd	0.038570393
231	0x3da8c706	0.08241086
232	0x3d125075	0.03572126
233	0xbdd593df	-0.10428595
234	0xbd8a2e69	-0.06747133
235	0xbde48d70	-0.111597896
236	0x3e01f53a	0.12691203
237	0xbd91f561	-0.071268804
238	0xbd302377	-0.043002572
239	0xbddf8d90	-0.10915673
240	0xbd70cd53	-0.058789562
241	0xbe08aa1f	-0.13346146
242	0x3dfc32c6	0.12314372
243	0xbdcae206	-0.09906392
244	0x3d30fd89	0.04321054
245	0x3dc8f979	0.09813208
246	0x3e0b6bf3	0.13615398
247	0xbdfb1d3c	-0.122614354
248	0x3d4316d2	0.047629185
249	0x3dd861e4	0.10565546
250	0xbdf32e6c	-0.11874089
251	0xbbea800a	-0.0071563767
252	0xbe10090d	-0.14065953
253	0xbded846d	-0.11597524
254	0x3d96282c	0.07331881
255	0x3a0205eb	0.00049599883

lstm.bias_ih_l0 f4 [200]
0	0x3d2e2c9b	0.042523008
1	0xbddf34f8	-0.10898775
2	0x3d44aab3	0.048014354
3	0x3e6b4e2a	0.22979036
4	0x3d07f2ef	0.033190664
5	0x3e3678ad	0.17819472
6	0x3dcd0cee	0.10012232
7	0x3de6213a	0.11236806
8	0x3b85b5a8	0.004080493
9	0xbce2b85c	-0.0276758
10	0x3cf3361c	0.029688887
11	0xbc4e25e3	-0.012582275
12	0xbdaf78ec	-0.08567986
13	0xbcb87a76	-0.022519331
14	0xbddd31f4	-0.108005434
15	0x3ddb1223	0.10696819
16	0x3daec434	0.085335165
17	0x3daa5d98	0.08318633
18	0xbd4919ff	-0.049097057
19	0x3df422aa	0.11920674
20	0xbdc06d07	-0.09395795
21	0x3e455506	0.19270715
22	0x3e301a57	0.17197548
23	0xbb623610	-0.0034517087
24	0xbdddd2c6	-0.108312175
25	0x3dd949bb	0.10609766
26	0x3d7c1a02	0.06154824
27	0xbd0d30d9	-0.034470413
28	0x3d4a8749	0.049445424
29	0xbdad59a1	-0.08464361
30	0xbdb3230d	-0.0874692
31	0xbcc549e9	-0.024083095
32	0x3e9220aa	0.28540546
33	0x3db2cfd5	0.08731047
34	0x3d8146e8	0.063123524
35	0x3e1ce20a	0.15320602
36	0xbde6524a	-0.11246164
37	0x3e0da7ce	0.13833544
38	0x3e1204d5	0.14259656
39	0x3dc15b5c	0.094412535
40	0xbd09547b	-0.033527832
41	0xbc4ced82	-0.012507798
42	0x3c29ed22	0.010371478
43	0xbd2e0626	-0.042486332
44	0x3d4af89b	0.049553495
45	0x3d71f0e3	0.059067618
46	0xbd88a0e8	-0.066713154
47	0xbab2906d	-0.0013623365
48	0x3d432634	0.047643855
49	0x3d98e13c	0.07464835
50	0x3d90979a	0.07060166
51	0xbe10b538	-0.1413163
52	0xbde3e279	-0.111271806
53	0xbdb8dfca	-0.090270594
54	0x3b300db4	0.0026863636
55	0xbe348336	-0.17628178
56	0x3cc7d571	0.024393769
57	0xbd16de7e	-0.03683328
58	0xbc980539	-0.018557178
59	0xbe0e7b4d	-0.13914223
60	0x3bb7ce45	0.005609306
61	0xbdc56794	-0.096388966
62	0xbd961734	-0.073286444
63	0x3d623f69	0.055236254
64	0x3cb9c9b8	0.022679195
65	0xbc9d6ae0	-0.019216001
66	0x3dddad69	0.10824091
67	0x3d8b4126	0.067995355
68	0x3db5b871	0.0887307
69	0xbdf99dfa	-0.12188335
70	0xbded0c6c	-0.11574635
71	0xbdefdfff	-0.11712646
72	0xbe0e1671	-0.13875748
73	0xbdeb6389	-0.11493594
74	0xbde0d1fb	-0.109775506
75	0xbdfd08ca	-0.12355192
76	0xbdb8e7a0	-0.09028554
77	0x3d6bd42f	0.0575754
78	0x3d3e6253	0.046480488
79	0xbc09cdba	-0.008410865
80	0x3d83ecc8	0.06441647
81	0x3df64baf	0.12026154
82	0x3ba275b6	0.00495788
83	0x3d1ee8b2	0.038796134
84	0xbd282493	-0.041050505
85	0x3de4d364	0.11173132
86	0xbcb88084	-0.022522219
87	0xba2e9ae2	-0.00066606526
88	0x3dd2fa76	0.10301678
89	0x3dbc262d	0.09186969
90	0xbe0f00f9	-0.13965215
91	0xbcd6ce20	-0.026221335
92	0x3d9e3f59	0.07726926
93	0x3d6ec354	0.05829175
94	0x3d490129	0.049073372
95	0xbc3a35d8	-0.011365376
96	0xbdaaf18e	-0.08346854
97	0xbdcf516e	-0.10122953
98	0xbca3a9d1	-0.019978436
99	0xbe1cbcb5	-0.15306361
100	0x3cbbec51	0.022939833
101	0x3e00e90e	0.12588903
102	0xbe137252	-0.14399078
103	0x3e9ac4ad	0.30228177
104	0x3d6a481e	0.057197683
105	0x3dbcf887	0.0922709
106	0x3d34db90	0.044154704
107	0xbd84b17e	-0.064791664
108	0xbe37a7ef	-0.17935155
109	0x3e07fe62	0.13280633
110	0xbdfa3db5	-0.12218801
111	0x3d993f8c	0.07482824
112	0xbdc417a4	-0.095748216
113	0x3e5cecf5	0.21574767
114	0xbdb9abef	-0.09065997
115	0xbd82d5d2	-0.06388439
116	0xbd951005	-0.07278446
117	0xbe5a53ae	-0.21320984
118	0xbe5c1f1c	-0.21496242
119	0xbdaf2350	-0.08551657
120	0xbdeead51	-0.11654151
121	0xbe240785	-0.16018493
122	0xbe220371	-0.15821625
123	0x3e28f9c2	0.16501525
124	0xbc148d12	-0.009066837
125	0xbdba8103	-0.09106638
126	0xbe37b581	-0.17940332
127	0x3d87a752	0.06623711
128	0x3cf5355e	0.029932674
129	0x3d66c0da	0.05633626
130	0x3e11b853	0.1423047
131	0x3e4e8ad6	0.20170149
132	0x3e5e6d4f	0.21721385
133	0xbc4d12b9	-0.012516671
134	0xbe1722ee	-0.14759418
135	0xbdeeda8a	-0.11662777
136	0xbd3a8bee	-0.045543604
137	0x3d3ff408	0.046863586
138	0xbc8f38a2	-0.01748306
139	0x3e06f63d	0.1317987
140	0xbe5746bd	-0.21023078
141	0x3d6b383a	0.05742667
142	0xbd93fce5	-0.0722597
143	0x3c882188	0.016617551
144	0xbd90fb9e	-0.07079242
145	0xbd2ef80e	-0.042717032
146	0x3c77466a	0.015092472
147	0x3d2ba110	0.041901648
148	0x3da5f3da	0.081031516
149	0xbdb016cd	-0.08598099
150	0x3d0492f5	0.03236671
151	0xbd3263e9	-0.043552313
152	0x3d897170	0.067110896
153	0x3e4a1299	0.19733657
154	0xbbc59fd9	-0.006031018
155	0xbd002e14	-0.031293944
156	0x3c4d1732	0.012517737
157	0x3d15dd41	0.036587957
158	0x3df574d5	0.119851746
159	0x3d323ad4	0.043513134
160	0xbc22ab67	-0.009928561
161	0xbc5d29e0	-0.013498753
162	0x3d21d5f9	0.0395107
163	0x3d7e9b45	0.062159795
164	0xbdf06c4e	-0.117394075
165	0x3da55a3f	0.08073854
166	0x3d8f0507	0.06983381
167	0x3e067dad	0.13133879
168	0x3dcd0736	0.10011141
169	0x3da65db7	0.081233434
170	0xbdaa245a	-0.08307715
171	0x3bf983d8	0.007614594
172	0x3deb59ea	0.11491759
173	0x3d90cc4d	0.07070217
174	0xbdbd02fa	-0.09229083
175	0x3e002b9f	0.1251664
176	0x3d75c372	0.060000844
177	0x3e1b221c	0.1514973
178	0x3e254570	0.1613977
179	0xbde88810	-0.11354077
180	0xbd12d3aa	-0.03584639
181	0x3e318bb2	0.17338446
182	0x3e8d14af	0.27554843
183	0xbdee359d	-0.1163132
184	0xbc6e5928	-0.014547624
185	0xbde8503b	-0.11343428
186	0xbdb180da	-0.086671546
187	0xbbf5690f	-0.0074893306
188	0x3d1eb091	0.038742606
189	0x3dc17835	0.09446756
190	0x3db63af3	0.088979624
191	0x3d1ad4a6	0.037800454
192	0x3d89428e	0.067021474
193	0xbc83620e	-0.016037967
194	0xbdb70b72	-0.0893773
195	0x3dabb15f	0.0838344
196	0xbc17f361	-0.009274335
197	0xbd86f899	-0.06590385
198	0xbd12f234	-0.035875514
199	0x3d65b61d	0.05608188

lstm.bias_hh_l0 f4 [200]
0	0xbd96bdc9	-0.073604174
1	0x3d91ea74	0.071247965
2	0x3df81461	0.12113262
3	0x3e813c42	0.25241286
4	0xbdce7690	-0.10081208
5	0x3dbe40ea	0.09289725
6	0xbc86c1cb	-0.01644983
7	0x3e8539a6	0.26020545
8	0xbd485868	-0.048912436
9	0x3c673f62	0.014114233
10	0xbd9a5528	-0.075357735
11	0x3d8cb873	0.068711184
12	0x3c31d234	0.010853339
13	0x3d229fe1	0.039703254
14	0xbd5123d0	-0.051059544
15	0xbd87bbc2	-0.06627609
16	0x3e0a7769	0.13522114
17	0x3c21a03c	0.009864863
18	0xbd5bd8ae	-0.05367344
19	0x3e3dc5a8	0.18532431
20	0xbd4b2d13	-0.049603533
21	0x3daf7ceb	0.08568748
22	0x3e37e0a8	0.17956793
23	0xbc434120	-0.0119173825
24	0xbe018d9b	-0.12651674
25	0xbd354918	-0.04425916
26	0x3dc13250	0.094334245
27	0xbd0c507f	-0.034256455
28	0x3d70c8d8	0.05878529
29	0xbddb95cf	-0.10721933
30	0x3d64acaa	0.055828728
31	0x3df75e8d	0.12078581
32	0x3e97e8c2	0.29669768
33	0x3d4c6229	0.0498983
34	0x3cf44722	0.029819075
35	0x3cdb1332	0.026742551
36	0xbbb1886b	-0.0054178736
37	0x3e4e8f1c	0.2017178
38	0xbc533882	-0.0128918905
39	0x3da948d4	0.08265844
40	0x3e4e3ab5	0.20139582
41	0xbd5ac599	-0.0534111
42	0x3c310ebc	0.010806736
43	0xbda6866f	-0.0813111
44	0xbd439da6	-0.047757767
45	0x3d5934a0	0.053028703
46	0x3dbbeb44	0.09175733
47	0xbd0711e4	-0.032976046
48	0xbd96c8ea	-0.0736254
49	0x3d72f9f8	0.05932042
50	0x3d675084	0.05647327
51	0x3d4ab45c	0.04948841
52	0xbd371c1c	-0.04470454
53	0xbe026256	-0.12732825
54	0x3d0ff1a6	0.035142563
55	0xbda17a37	-0.07884639
56	0xbbb9ea07	-0.00567365
57	0xbe5f508c	-0.2180807
58	0x3c7498d1	0.014929012
59	0x3d87b3da	0.06626101
60	0xbd6d1537	-0.05788156
61	0x3d8e05ad	0.06934676
62	0xbc31b6cf	-0.010846808
63	0x3db2030f	0.0869199
64	0xbdecde2b	-0.11565813
65	0xbd1245c0	-0.03571105
66	0xbc54fe5b	-0.013000096
67	0x3d8b1dac	0.06792769
68	0x3d0477f0	0.032340944
69	0xbd115aee	-0.035487108
70	0xbd552211	-0.05203444
71	0xbcb03013	-0.021507299
72	0x3dc7ad46	0.09749846
73	0x3d8111ca	0.06302221
74	0x3c6df20e	0.014523042
75	0x3d7f14fe	0.06227588
76	0x3da64eca	0.081204966
77	0xbdf8c309	-0.12146575
78	0xbc3ca05b	-0.011512841
79	0xbdeb5cec	-0.11492333
80	0x3d4b9a17	0.0497075
81	0x3d6023cf	0.05472165
82	0xbe39507e	-0.18097112
83	0xbdbaa324	-0.09113148
84	0xbdd29c4b	-0.10283717
85	0x3d8e68b0	0.06953561
86	0x3cce52a6	0.025185894
87	0x3cf8e2d7	0.030381603
88	0x3c913fcb	0.017730614
89	0x3ce2a30d	0.02766564
90	0xbcdf393d	-0.027248973
91	0x3df27387	0.11838441
92	0x3d1e34a0	0.038624406
93	0xbd85215d	-0.06500504
94	0xbd7c98c4	-0.061669126
95	0xba9393c5	-0.0011259249
96	0xbd9bbe83	-0.076046966
97	0xbe0b9a56	-0.13633093
98	0x3dbafcaa	0.09130223
99	0x3d1caa66	0.038248442
100	0x3dd89413	0.10575118
101	0xbdf508bf	-0.11964559
102	0xbe220c68	-0.15825045
103	0x3e93351c	0.28751457
104	0x3c21e198	0.009880446
105	0x3c93c997	0.018040461
106	0xbe00fd6b	-0.12596671
107	0xbda3652c	-0.079782814
108	0xbe2cfaa3	-0.16892485
109	0x3e0a0bf1	0.13481118
110	0xbdd3baeb	-0.10338386
111	0xbdfdf0d9	-0.12399454
112	0x3d11a2be	0.035555594
113	0x3e68c63b	0.22731869
114	0xbd81cfee	-0.063384876
115	0xbdc9086f	-0.09816062
116	0x3c829dbc	0.015944354
117	0x3ceee7fa	0.02916335
118	0xbe5bfd17	-0.21483265
119	0x3d34282d	0.043983627
120	0xbdb920e8	-0.090394795
121	0xbe912c03	-0.2835389
122	0x3b4e997b	0.0031524587
123	0x3d3a67b9	0.045509074
124	0x3d8e7f81	0.06957913
125	0xbd3c72ef	-0.046008047
126	0xbcec21bb	-0.028824678
127	0xbb85df98	-0.0040854923
128	0xbd3ca461	-0.0460552
129	0x3ca87916	0.02056555
130	0x3e4114c8	0.18855584
131	0x3e8d3085	0.2757608
132	0x3d61b3e5	0.0551032
133	0x3dadb356	0.08481471
134	0x3dc42391	0.09577096
135	0xbdd314d4	-0.10306707
136	0x3d1e27c8	0.038612157
137	0xbc1f8068	-0.009735204
138	0x3e322050	0.17395139
139	0x3d8275a1	0.06370092
140	0x3d0393b2	0.032123275
141	0xbdf93fb1	-0.12170351
142	0xbded6756	-0.115919754
143	0xbe3b8ef1	-0.18316247
144	0x3cafe7c3	0.021472817
145	0xbdb692bc	-0.08914706
146	0x3df71163	0.12063863
147	0x3d8880be	0.066651806
148	0x3dcef3c5	0.10105089
149	0xbd269395	-0.04066809
150	0xbd4fb282	-0.050707348
151	0xbe07d465	-0.13264616
152	0x3d789e82	0.06069804
153	0x3e04aa08	0.12955487
154	0x3b0904d2	0.0020907414
155	0x3d8e145d	0.06937478
156	0xbd29a1a4	-0.04141392
157	0x3e7cd0b4	0.24688989
158	0xbce3d663	-0.027812188
159	0xbd5a2c76	-0.053265058
160	0x3e329ddd	0.17443033
161	0x3ba2b19b	0.00496502
162	0x3da242ac	0.07922873
163	0x3bab8fc8	0.005235646
164	0x3c7d1e37	0.015449098
165	0xbc52b374	-0.012860168
166	0x3d7f1cc0	0.062283278
167	0x3e20ab61	0.15690376
168	0x3ca6f2fd	0.020379538
169	0x3e159c0e	0.14610311
170	0x3dca9a43	0.09892704
171	0x3e2f1c0c	0.17100543
172	0x3e001b79	0.1251048
173	0x3e1adf7a	0.15124312
174	0x3dafa7c9	0.08576924
175	0x3dd358e2	0.103196874
176	0xbdf844c2	-0.121224895
177	0x3dcd0cc5	0.10012201
178	0x3e13a85b	0.14419691
179	0x3de16e53	0.11007371
180	0xbd0e66e1	-0.03476608
181	0x3e242f13	0.16033582
182	0x3e8429b7	0.25813076
183	0xbdc3dcd0	-0.09563601
184	0xbde7467d	-0.112927414
185	0x3bc17a78	0.005904492
186	0xbda08b74	-0.078390986
187	0x3e2eabf5	0.17057784
188	0x3da7d9a8	0.081958115
189	0xbb7f1aab	-0.0038925807
190	0x3e31542e	0.17317268
191	0x3d125607	0.035726573
192	0x3dcf00ce	0.10107575
193	0x3cdfca41	0.027318122
194	0x3d8eea60	0.06978297
195	0x3e66b78a	0.22530952
196	0x3d8b38dc	0.067979544
197	0x3cdc8369	0.02691813
198	0xbdeafc2c	-0.11473879
199	0xbcef73c0	-0.029229999

linear.weight f4 [1, 50]
0	0x3edef98f	0.43549773
1	0xbdaa0f19	-0.08303661
2	0x3e8c4f2e	0.2740416
3	0x3efc70ac	0.49304712
4	0x3e073576	0.13203987
5	0x3edce69e	0.43144697
6	0x3ad9f042	0.0016627389
7	0xbf2b7da1	-0.6698857
8	0x3e58da02	0.21176913
9	0xbe3f3f48	-0.18676484
10	0xbe5bfd96	-0.21483454
11	0xbe99a629	-0.30009583
12	0x3e6afad7	0.2294725
13	0x3ef85894	0.4850508
14	0x3e27db7e	0.16392323
15	0x3ec1eae0	0.37874508
16	0xbe48701f	-0.19574021
17	0x3f1d0ff5	0.61352473
18	0xbdea7da2	-0.11449744
19	0x3ef6d504	0.48209393
20	0xbe8ad2a8	-0.27113843
21	0xbe28d38d	-0.1648695
22	0xbec045b6	-0.37553185
23	0x3ea46bc1	0.3211346
24	0xbd1e1000	-0.038589478
25	0x3de4ecf9	0.111780114
26	0x3dd15da5	0.102229394
27	0xbe3afd02	-0.18260577
28	0xbf073ad7	-0.5282416
29	0xbd882c1d	-0.06649039
30	0x3dbafa05	0.09129719
31	0xbdb1fb0a	-0.0869046
32	0x3f880363	1.0626034
33	0xbe3c5aaf	-0.18393968
34	0x3db66c01	0.08907319
35	0x3e041c23	0.12901358
36	0x3ac2f124	0.0014872891
37	0xbf2e0616	-0.67978036
38	0xbd41d242	-0.047319658
39	0x3ea4b100	0.3216629
40	0x3f0df519	0.55452114
41	0x3e6a4553	0.22878008
42	0xbeca376c	-0.3949541
43	0xbce6736e	-0.028131213
44	0x3d112c3c	0.035442576
45	0xbef5870f	-0.47954604
46	0x3eb72727	0.35772058
47	0x3e8ad2d0	0.27113962
48	0x3d8400a8	0.06445438
49	0xbe5d6096	-0.21618876
